best_model.pth (torch, 2939 bytes, 3 tensors)

net.0.weight f4 [16, 4]
00000000: 9e8e dcbe 5fe3 95be 381c 1a3f 38b2 8cbe
00000010: 68a1 60be 9450 023f 48f6 193f 3654 dabe
00000020: 134b 88bf 3aef babf 2024 773f 70ae d93e
00000030: a769 973f c1e7 a13f bef1 9e3e 6e6c 04c0
00000040: c46f 9a3e 0492 32bf 5a33 97bf 06c7 21c0
00000050: 2efb 45bf 1acc e3bf f047 c4be 5fed a2be
00000060: 9070 183d 5964 1440 52b2 bfbf 9a9c adbf
00000070: 34b0 6dbf 1265 acbe 3ae1 6abf 76ee 69be
00000080: 6c8c 15bf 5952 973f 0cd1 013e 6c32 3a3d
00000090: e452 443f e6ad c93e 2c84 313d e85a 38bf
000000a0: fa1c e5bf 66d4 5e3f 998c 98be 6b61 b4bf
000000b0: 1e02 983f 9cc3 523f 6e97 18bf dcd5 74bf
000000c0: 2c29 18be 0354 a73f 79ce 04bf b498 82bf
000000d0: 9333 19bf b2af 3b3f 94b9 cb3e 4ce5 51be
000000e0: 43e4 aa3e ae33 393e 539a 9bbf 320a 883f
000000f0: 3ec1 b7be f1ec b9bf 1827 6a3e 54eb 273f
-0.43077558 -0.29275033 0.6019931 -0.2747972 -0.21936572 0.509042 0.6014142 -0.42642373
-1.0647911 -1.4604256 0.965395 0.42515898 1.1829118 1.2648851 0.3104381 -2.069118
0.30163395 -0.6975405 -1.1812546 -2.5277724 -0.77336395 -1.7796662 -0.38336134 -0.31821725
0.037216723 2.3186247 -1.4976294 -1.3563416 -0.9284699 -0.3367086 -0.9174992 -0.22844872
-0.5841739 1.1822006 0.12677401 0.045458242 0.7668898 0.39390486 0.04333894 -0.7201371
-1.7899468 0.87042844 -0.29794767 -1.409223 1.1875646 0.82329726 -0.59606063 -0.95638824
-0.14859456 1.3072513 -0.5187755 -1.0202851 -0.5984432 0.73314965 0.39790022 -0.20497626
0.33377275 0.1808612 -1.2156471 1.0628111 -0.3588962 -1.4525434 0.22866476 0.6559346

net.0.bias f4 [16]
00000000: 8054 5f3f ed55 8cbf 7828 453f cfee bdbe
00000010: d16c c83f 76bb f4be 4e74 21be 3849 bf3e
00000020: ae26 c13e d8b9 0ec0 803a 433f 8f3a 853f
00000030: 8888 79bf c5db 8abf d43b f23d b061 613f
0.8723831 -1.0963722 0.77014875 -0.3709626 1.5658208 -0.4779927 -0.15767023 0.3736055
0.37724823 -2.230093 0.7626114 1.0408496 -0.97473955 -1.0848318 0.118278176 0.88039684

net.2.weight f4 [1, 16]
00000000: 24b3 20c0 321b 6bbf 5768 8cbf 39fd 9b3f
00000010: 0467 573e 104b 9abd c440 38bf 5119 d53f
00000020: 4f10 63bf da21 91be 95dc f4bf 861b 0940
00000030: 72b9 043f 2d6d f33f 181d d93d 7aaa d8bf
-2.5109339 -0.9183837 -1.0969342 1.2186652 0.21035391 -0.07533848 -0.71973825 1.6648351
-0.8869676 -0.2834614 -1.9129816 2.142305 0.5184547 1.9017693 0.10601252 -1.6927025
